model_weights.pth (torch, 34372 bytes, 6 tensors)

fc1.weight f4 [64, 54]
000000 92 11 b4 3e ce 1a dd 3e 92 ed 1c c0 ec 2c cb bf
       0.35169655 0.43184513 -2.4520001 -1.5873084
000010 e6 bd 9a 3f 45 ef 42 be ae 96 eb bf 24 ea 74 3f
       1.2089202 -0.19036587 -1.8405359 0.9566977
000020 c9 bf aa be cb 76 47 3d f5 22 37 bc 7e 1b 10 bd
       -0.33349445 0.048697274 -0.011177768 -0.03518247
000030 3a ad f6 3c 10 b5 01 3c cd ce cb 3d dd c3 9a 3c
       0.030111898 0.007916704 0.099515535 0.018892223
000040 49 80 08 3d d5 2e 87 3d 9b 89 e6 3e 95 d9 d1 be
       0.033325467 0.066007294 0.4502686 -0.40986314
000050 4b 52 4b c0 07 4a 42 40 39 d9 a6 3d ca 1d 9e bd
       -3.1768978 3.0357683 0.08146901 -0.077205256
000060 49 09 8c 3d 4d 06 91 bd be 8e b1 3c 80 7d ce 3c
       0.068377085 -0.0708128 0.02167451 0.025206327
000070 bf 2d aa be ff d2 9c 3e 79 96 c5 bd 05 1e e9 3d
       -0.33238026 0.30629727 -0.09647841 0.11382679
000080 f2 72 10 c0 32 9f 06 40 c6 86 77 3c 94 eb c1 3d
       -2.2570157 2.1034665 0.015107816 0.09468761
000090 da 5a 14 3e 57 e2 49 be 63 7f 8c be 93 8a be 3e
       0.14487782 -0.19715248 -0.27440938 0.372151
0000a0 5f 54 0f 3f d9 61 0f bf 04 4f 2d bf 0c f6 77 3f
       0.55988115 -0.5600868 -0.67698693 0.9685981
0000b0 2f c7 20 c0 da 78 e9 bf 62 90 a2 bd a4 30 bd bd
       -2.5121572 -1.8240006 -0.07937695 -0.09237793
0000c0 ca 4b f4 3c e8 1a a7 bd 78 dc 66 bd 2e dc 57 3d
       0.029821295 -0.08159429 -0.0563626 0.052700214
0000d0 e3 cc 4c 3d cc 79 26 bd 60 f8 02 40 54 bc 06 40
       0.050000083 -0.0406435 2.0464096 2.1052446
0000e0 80 6c 8b c0 d2 f6 4b 40 91 46 56 40 5d 17 8c bf
       -4.3569946 3.1869397 3.348057 -1.094463
0000f0 ae 78 91 40 8a 82 f7 be 78 39 58 3f 83 ca 8e bf
       4.5459814 -0.4834178 0.8446269 -1.1155552
000100 6b bb 45 bf e8 a0 3d bf 39 90 82 bf 00 5b 6a 3a
       -0.772391 -0.7407365 -1.0200263 0.00089399517
000110 ef ab 18 bb d3 44 00 40 c2 89 d1 3f 2e 2d 8b 3e
       -0.002329584 2.0042007 1.6370165 0.27182907
000120 98 9d 38 be ad f1 cd 3d e0 07 3b bf 86 18 4b 3f
       -0.18028867 0.100558616 -0.7305889 0.79334295
000130 35 db 9e be a3 34 82 3e 5b 1b 92 be 36 7a a5 3e
       -0.31026617 0.25430784 -0.28536496 0.32319802
000140 35 81 cc bf 87 b2 bd 3f 87 d3 42 be cf 47 18 3e
       -1.5976931 1.4820107 -0.19026004 0.14871143
000150 1f a3 34 bf 9b 4a 0b 3f 9a 10 ec bf 92 c7 00 40
       -0.70561403 0.54410714 -1.8442566 2.0121808
000160 a2 c9 b5 be 61 c9 fe 3e 2a 31 b5 bf 9a 01 9f 3f
       -0.35505396 0.49763015 -1.4155629 1.2422364
000170 97 10 00 bf a4 46 21 3f e6 8a b0 bf 8e 9e 9c 3f
       -0.50025314 0.62998414 -1.3792388 1.2235887
000180 a9 ac 63 41 8c 56 64 41 d0 50 11 41 38 e0 80 41
       14.229653 14.27113 9.08223 16.109482
000190 fb dd cd 3e 7d 6d e1 be e5 3a c5 3c d4 1b 63 bd
       0.4020842 -0.44028845 0.024075935 -0.05544646
0001a0 dd 4c 4e 3f 91 19 4a bf 51 bd 0c c0 c9 1f 09 40
       0.80586034 -0.7894526 -2.199055 2.142565
0001b0 bc 8c 80 40 31 85 94 40 ac 05 8c 3d f9 18 a4 be
       4.0171795 4.6412587 0.06837019 -0.32050303
0001c0 7a 65 93 3f f3 f6 23 bc 9b 1c bb bc 2e ff 83 bd
       1.1515343 -0.010007608 -0.022840789 -0.06445156
0001d0 8b 92 ae 3f db e2 9b bb e6 d7 7a 3d 09 04 01 bc
       1.3638471 -0.004757268 0.061241053 -0.007874497
0001e0 7c 00 b1 3a d8 ad c3 3d c8 28 f7 bc df 6f dd bc
       0.0013504173 0.095546424 -0.030170813 -0.027030883
0001f0 7e e8 31 bd c8 44 9d 3b 3b be 75 3d fc b5 7d 3d
       -0.043434612 0.004799459 0.05999587 0.061941132
000200 03 86 0f c0 47 71 16 40 4c ed 89 3c aa fb e2 3c
       -2.2425544 2.350664 0.016836785 0.027707893
000210 22 19 2e bc 0f 5d 3f 3d 77 20 55 3e 10 5c 40 3b
       -0.010626109 0.046719607 0.20813166 0.0029351749
000220 72 a1 eb 3d 7f d5 85 bd 8b 87 95 3b 60 13 4f be
       0.115054026 -0.06534862 0.004563277 -0.20222235
000230 57 2b 12 c0 77 f1 1b 40 23 be c7 3d bf 78 87 3d
       -2.2838953 2.4366128 0.097530626 0.06614827
000240 10 46 9a 3d f4 d9 b6 3d ee 69 0a 40 70 3f 03 c0
       0.075328946 0.0892829 2.1627154 -2.050747
000250 4e 9b 8c bd 42 8f c1 bd 12 6d 95 c0 20 c2 b0 c0
       -0.068655595 -0.094511524 -4.6695642 -5.523697
000260 00 3d 2a c0 b8 55 a6 c0 b2 a6 49 3d 91 ee 42 3d
       -2.6599731 -5.1979637 0.04923124 0.047590796
000270 86 63 cc 3d 55 6e a3 3d 54 22 13 3d 87 a7 34 bc
       0.0997992 0.079800285 0.03592141 -0.01102627
000280 cb 92 1f 3e 1b 88 ba bb 46 d5 39 3e 85 99 4a bf
       0.15583341 -0.0056924946 0.18147764 -0.791405
000290 74 f5 3d bf e3 4d a5 bf 37 d2 78 c0 00 e2 0f be
       -0.74202657 -1.2914394 -3.8878305 -0.14051056
0002a0 c7 b5 0d bf a9 23 f1 3e 94 aa 6d 3f ea 68 46 be
       -0.55355495 0.4709752 0.92838407 -0.19375959
0002b0 08 99 ef bd 28 66 f0 bd 12 db e1 be 84 83 02 bd
       -0.1169911 -0.11738235 -0.4411245 -0.031863704
0002c0 e6 92 5a bd 2c e9 ca bd 95 3e 2f be d7 2e f4 bc
       -0.05336275 -0.09907755 -0.17113717 -0.029807491
0002d0 0d ca 17 be 6e c4 49 3e 60 3d 3d bf 12 07 5f 3f
       -0.1482317 0.19703838 -0.73921776 0.87120163
0002e0 d5 dd 86 bd 14 14 7d 3d 07 6a 6e bd 1a 0b 52 3e
       -0.0658528 0.061786726 -0.058206584 0.20512047
0002f0 d1 4f 8e 3e 80 a4 79 be c5 87 96 bd 75 3b fa 3d
       0.2779527 -0.24379158 -0.07350115 0.12218372
000300 ad 1c d8 be 63 04 89 3e f5 0b 0d bd bb 41 fc bd
       -0.42209378 0.2676116 -0.03443523 -0.123172246
000310 f9 36 36 bf c0 7e 06 3f 9b 9d f6 be c7 c9 92 3e
       -0.7117763 0.52537155 -0.48167118 0.2866957
000320 75 7b 66 3f 3d 04 43 bf 6f 1a 48 be bb 15 30 3e
       0.9003213 -0.7617834 -0.19541334 0.1719579
000330 14 b7 23 c0 5f 04 ea bf df 7e a1 bf 94 5f 9f bf
       -2.5580492 -1.8282584 -1.2616843 -1.2451043
000340 40 cb 3c 3c b5 67 1d be bb 20 aa 3c 12 b4 43 3e
       0.011523068 -0.15371592 0.02076756 0.1911166
000350 79 41 14 3e d5 48 2f be d8 b7 03 3e 58 0f 76 bd
       0.14478101 -0.17117627 0.128631 -0.060073227
000360 78 73 f4 3f 78 1c 14 40 79 c1 81 c0 61 0d 0e 40
       1.9097738 2.3142376 -4.0548673 2.2195666
000370 12 bc 51 40 25 0d eb bf e3 a5 0b 3f 13 c2 32 c0
       3.277104 -1.8363386 0.5455 -2.7930954
000380 b5 ec 4f 3f 57 e6 15 c0 28 fa b1 bf ed 42 50 3f
       0.8122056 -2.3421838 -1.3904467 0.8135212
000390 35 bd 4b be 00 b4 ba 3a 3d 18 59 be 7d c4 0c bf
       -0.19896396 0.0014244318 -0.21200652 -0.5498732
0003a0 38 80 50 3f 09 26 49 3e 67 7d 91 be fd 49 09 3e
       0.81445646 0.19643416 -0.28415987 0.1340713
0003b0 c4 f6 3e c0 ca 2f 4e 40 65 a7 bb be df fb 08 3f
       -2.9838114 3.2216668 -0.3665115 0.53509325
0003c0 93 22 be be 39 14 e3 3e 66 4f 78 bf 00 74 89 3f
       -0.37135753 0.44351366 -0.9699615 1.0738525
0003d0 e9 fc 39 be e5 26 b6 3e 2a ab 1d bf 40 4c 0d 3f
       -0.18162884 0.3557655 -0.615893 0.55194473
0003e0 82 ea 17 c0 dc 99 15 40 e2 4d 5c be 31 cb a6 3d
       -2.3736882 2.3375158 -0.21514085 0.081442244
0003f0 6c 32 5f bf 0c 80 4d 3f 19 17 c9 be 20 19 fb 3e
       -0.8718631 0.8027351 -0.39275435 0.49042606

fc1.bias f4 [64]
000000 66 b4 b1 bf 63 af 0c c2 45 32 16 c1 0a 79 1b c0
       -1.3883178 -35.171276 -9.387273 -2.4292626
000010 32 ab d4 c1 53 0f 09 be da b6 bf c0 2c 20 b9 c0
       -26.583591 -0.13384752 -5.9910707 -5.785177
000020 42 62 fc bf 4a 04 a8 c0 44 e9 e8 c0 88 9e c3 c0
       -1.9717486 -5.2505236 -7.278475 -6.113102
000030 e4 29 90 c0 79 79 0e c1 71 f5 a2 c0 a0 42 91 c0
       -4.5051136 -8.904656 -5.092461 -4.539383
000040 74 fa f7 bf 6a 6a b5 c1 73 04 fd bf ad c6 c2 c0
       -1.9373307 -22.67696 -1.9766983 -6.0867524
000050 e2 28 58 c0 23 d0 76 c0 c6 ec 01 c0 a0 fc 37 c1
       -3.3774953 -3.8564537 -2.0300765 -11.499176
000060 17 75 0f c0 ce 5e 02 c1 2d 46 a9 c0 9a 92 6a c0
       -2.2415216 -8.148146 -5.2898164 -3.6651978
000070 16 e8 1b c1 25 b9 c9 bf 59 61 30 c0 85 37 5a c0
       -9.744162 -1.5759627 -2.7559416 -3.4096386
000080 47 18 dc c1 ba 38 ae c0 eb 43 d8 c0 12 64 74 bf
       -27.511854 -5.4444246 -6.758291 -0.95465195
000090 a8 d6 a1 c0 db a8 b9 c0 80 50 45 bf 52 fa ec c0
       -5.057453 -5.8018622 -0.7707596 -7.4055567
0000a0 d9 60 bf c0 37 a2 19 c0 7f 5f d3 c0 0d 00 40 c1
       -5.980572 -2.4005258 -6.605407 -12.000012
0000b0 23 5e 2a c1 22 1b 5d bf 72 e3 d4 c0 ce 85 0a c0
       -10.647983 -0.86369526 -6.6527643 -2.1644168
0000c0 80 1e 70 bf c3 c6 20 c0 eb d4 72 c0 2d 3b ec c0
       -0.9379654 -2.5121315 -3.7942455 -7.3822236
0000d0 05 dc 40 c1 c0 f9 9e bf e7 53 30 c0 6e dd ac c0
       -12.053716 -1.2419968 -2.755121 -5.40203
0000e0 86 29 97 c1 82 4d ab c0 f9 9b 52 41 c0 fb 5e c0
       -18.895275 -5.3532114 13.163079 -3.4841156
0000f0 c8 01 cd c1 f3 e6 c6 bf 41 54 cd c0 d0 ee 6e c0
       -25.62587 -1.553923 -6.416535 -3.733326

fc2.weight f4 [64, 64]
000000 1a 64 1f 3f d7 08 32 40 ff ce b5 3f eb ee 6a c0
       0.6226212 2.7817895 1.4203795 -3.6708324
000010 63 3a 51 3f d2 15 5d 3f d6 d5 0f 40 6a 5a 11 40
       0.81729716 0.8636142 2.2474265 2.2711434
000020 75 72 2c 3f 96 19 29 3f 77 fb e4 3f 8f e0 52 c0
       0.6736215 0.66054666 1.7889241 -3.294956
000030 df 47 8b 3f 9e 6c 98 c0 70 15 6c 40 40 4d 6e c0
       1.0881308 -4.763259 3.6888084 -3.723465
000040 11 e6 c8 bf 7d b3 88 40 ac 37 8b bf e6 cd cd 3f
       -1.5695211 4.27191 -1.0876365 1.607846
000050 fa 38 27 3f 39 9a 22 bf d3 cb a9 be 6e 5d c3 40
       0.65321314 -0.63516575 -0.33163318 6.105155
000060 e4 0a 1a 3f 23 4d 66 c0 41 36 c9 bf 82 c9 9c 40
       0.6017287 -3.598458 -1.5719682 4.899598
000070 18 b0 af 3f 26 eb b5 bf f7 47 63 3f d3 ef a1 be
       1.3725615 -1.4212387 0.88781685 -0.31628284
000080 b1 ae d5 3f d5 c3 82 3f 05 32 85 3f cb 48 5f 3d
       1.6693937 1.0216013 1.040589 0.05451278
000090 d2 38 a7 3f ac fe 0d bf 41 6d 6c bf 26 75 2f 3f
       1.3064215 -0.55466723 -0.9235421 0.6853813
0000a0 8f ab ee 3e cd 86 d1 be ae 9a 32 bf a8 fc 20 c1
       0.46615264 -0.40923157 -0.6976727 -10.061684
0000b0 91 77 11 40 59 7c 94 bf 31 93 a2 40 d3 33 7c 3f
       2.2729228 -1.1600448 5.0804677 0.9851658
0000c0 00 f7 87 bd 79 23 cd bf fe a2 53 3f 43 28 3d 40
       -0.066389084 -1.602645 0.8267058 2.9555824
0000d0 e6 4a 08 41 fc e4 99 bf 2c ef e0 3e c4 7d ba bf
       8.518286 -1.2023005 0.43932474 -1.4569631
0000e0 e5 5d c2 3f 3d e6 c7 c0 e0 4c a5 bf ec 4e f8 3e
       1.5184904 -6.2468553 -1.2914085 0.48497713
0000f0 2a 09 b5 be 55 7c 9c bf c5 35 da 40 e9 2e 34 40
       -0.35358554 -1.2225443 6.8190637 2.8153632
000100 4a 11 3f be 66 54 35 40 91 e6 1a c0 d6 b6 61 3e
       -0.18658939 2.8332763 -2.4203227 0.22042403
000110 b5 4e 22 be 00 5b f4 3e 30 b6 9d bf 7c 4c 3e bf
       -0.15850337 0.47725677 -1.2321224 -0.74335456
000120 21 11 8a bf 37 7c 9e c1 2a 96 81 c0 18 40 33 3f
       -1.0786477 -19.810652 -4.0495806 0.70019674
000130 67 0c d7 bf 04 8c e2 3f 8a f2 05 40 e6 7b a7 3e
       -1.680066 1.7698979 2.0929284 0.32711715
000140 3c 2c b4 3d 3b dc 21 40 b1 1a ea bf 44 46 6c 40
       0.087974995 2.5290668 -1.8289396 3.6917887
000150 24 1e 23 bf f2 4c 42 c1 b2 bc ef 3e de d6 17 c1
       -0.63717866 -12.143785 0.4682365 -9.489958
000160 59 4f 08 bf 38 e5 85 3f 41 23 b6 3d 3c f2 e2 bf
       -0.53246075 1.0460577 0.08893443 -1.7730174
000170 1e 9c ca bf 5a 14 d0 be b9 00 7f c0 be 39 84 bb
       -1.5828893 -0.40640527 -3.984419 -0.0040352037
000180 5a 79 86 40 16 98 35 3e ae 80 43 c0 3a 4d 52 c1
       4.2023134 0.17733797 -3.054729 -13.143854
000190 2e dc 9c be ca 0e 1b 3f 85 f8 c3 be 2f a1 69 3f
       -0.30636734 0.6056944 -0.38275543 0.9126157
0001a0 90 a9 16 c0 9f 66 3c bf 54 1d 0b c2 35 12 15 c1
       -2.3540993 -0.7359409 -34.77864 -9.316945
0001b0 ca b9 cf c0 32 7c a0 be 59 e7 91 3f 67 3c b9 c0
       -6.4914293 -0.31344754 1.1398727 -5.7886233
0001c0 03 57 18 bf a7 76 c2 3e 12 db e2 3f e6 bd 81 c1
       -0.5950777 0.3798115 1.7723105 -16.217724
0001d0 7a db de 3f 6b 12 7f 3e 5a de 3a 3f 52 e6 c7 3f
       1.7410729 0.2490937 0.7299553 1.5617163
0001e0 8f 9d 97 c0 4a 1e 09 40 a1 91 53 be 6d ee 28 c1
       -4.737983 2.1424737 -0.20661022 -10.558209
0001f0 1f 1a 3a c1 b1 da c4 3e 80 34 b8 3e e4 60 41 40
       -11.631377 0.38448098 0.35977554 3.0215387
000200 d8 7f e8 bd c5 5e 7c c0 88 15 4d 3f 22 44 04 c0
       -0.11352509 -3.9432843 0.8011098 -2.0666585
000210 85 23 b4 bf 2e a5 38 bf 47 2e 9d 3f a7 14 1b be
       -1.407334 -0.72127044 1.2279748 -0.15144597
000220 19 95 25 bf 1d d5 39 3f b9 30 c0 3e b0 5d 6c c0
       -0.6468063 0.7259081 0.37537172 -3.6932182
000230 20 a6 a0 3f 96 52 31 c0 ed f1 1e 40 f0 3d 83 3f
       1.2550697 -2.7706656 2.483516 1.0253277
000240 07 2c c9 bf 95 9b 9b c0 d7 7b ee be 3e ce c6 3f
       -1.5716561 -4.862742 -0.46578857 1.553169
000250 bf 85 50 be 76 cd 0f c0 f8 35 8f 3e 73 28 a1 be
       -0.2036352 -2.2469153 0.27970862 -0.31476173
000260 51 28 74 bc 5e 0d 93 c0 45 d1 fa bf 50 c6 fd bf
       -0.01490219 -4.5953817 -1.9595114 -1.9826145
000270 9e d8 ad 3f 48 19 49 be 8d 15 2c 40 16 42 98 3f
       1.3581731 -0.1963855 2.6888154 1.1895168
000280 d3 23 97 3e 77 22 41 3d fb 3e 4f 3f c7 87 c9 3e
       0.2951952 0.04715201 0.80955476 0.39361402
000290 26 34 cb bf af 61 4a 40 13 5a 57 bf 31 4e 33 bf
       -1.587529 3.1622121 -0.8412182 -0.70041186
0002a0 7e 4e be c0 35 25 e8 bf b5 4e d8 3e b8 9d 68 40
       -5.9470816 -1.8136355 0.4224755 3.6346264
0002b0 9f c5 89 3f 23 30 47 3f 5c 93 9d be f4 6b 54 3e
       1.0763434 0.77807826 -0.3077649 0.20744306
0002c0 b6 05 a9 be f2 5c 16 40 22 28 ed 3f b1 62 f1 3f
       -0.3301217 2.349423 1.8527873 1.8858243
0002d0 35 ae db 40 9f db dd 3f 19 db f9 bf 14 b3 16 3e
       6.8650155 1.7332648 -1.9519988 0.1471675
0002e0 0f 8d 38 bf b2 9c 06 3f fe 38 8f be 5f fd d7 3f
       -0.7209024 0.5258285 -0.2797317 1.6874198
0002f0 fb 03 e7 3f 2e 27 e1 3e cb 34 46 bf 99 79 01 40
       1.804809 0.43975204 -0.77424306 2.0230467
000300 15 bf 35 3f 9b 10 73 c1 6c 5b e6 3e 3e c1 32 3f
       0.70994693 -15.191554 0.44991624 0.69826114
000310 e3 60 de c1 ce 53 41 3e 48 a5 35 bf 81 87 88 be
       -27.797308 0.18879625 -0.70955324 -0.2666588
000320 49 5e 6e be 0d 01 4b c0 bf 9f 8f 40 76 c6 80 c1
       -0.23278154 -3.1719391 4.4882503 -16.096905
000330 57 3d 70 3f 98 c8 c3 3d ee cf 80 c0 91 ce 1b 3f
       0.938436 0.095597446 -4.025382 0.6086207
000340 e2 87 26 3f fa ce ad 3f 50 e5 80 3d 0a aa a4 3f
       0.6505109 1.3578789 0.06293738 1.2864392
000350 a7 1a 09 3f 87 e1 dc 3e 56 93 95 3e 83 dc 86 40
       0.53556293 0.43140814 0.2921397 4.214418
000360 2d 26 a0 be 37 39 de 3e d7 22 6e be 58 d3 bb 3e
       -0.31279126 0.43403026 -0.23255478 0.3668468
000370 98 a1 2b 40 f5 37 b0 bf bf 65 a1 bf 7f a7 38 3f
       2.681738 -1.3767077 -1.2609175 0.7213058
000380 e1 e4 8a c0 31 36 20 be ce db d2 c0 bf 23 ea be
       -4.3404393 -0.15645672 -6.5893316 -0.45730397
000390 69 15 87 bf 56 0e 9b bf 48 68 a6 bd b0 0f 51 3e
       -1.0553409 -1.211375 -0.08125359 0.2041614
0003a0 c7 ee 37 3e a3 d3 38 3f 67 bd 9f 3e 38 ba 44 3f
       0.1796218 0.7219793 0.3119919 0.7684665
0003b0 18 6c ad 3f 8e 1d 2c 40 f4 e9 00 c0 85 c0 aa bf
       1.3548613 2.6893039 -2.0142794 -1.3340002
0003c0 39 6d b3 3e fd 8c 88 bd 95 73 1c bf fb 81 3f 3f
       0.35044268 -0.066675164 -0.61113864 0.7480771
0003d0 2f e3 e5 3f 61 ff 00 c0 01 97 e8 3d dd 88 86 c0
       1.7959956 -2.015587 0.11356927 -4.204207
0003e0 35 a0 f6 c0 31 50 4c c0 c1 1b 5a be 9e 52 14 c0
       -7.7070565 -3.1923945 -0.2129965 -2.3175426
0003f0 8c a0 3e c1 c2 e8 ba 3d fe 4c 5f bf 4c 90 a9 3e
       -11.914196 0.09126426 -0.87226856 0.33117902

fc2.bias f4 [64]
000000 4f df e8 3e 78 31 65 c0 41 d3 eb c0 80 ee 81 40
       0.4548287 -3.5811443 -7.369538 4.060364
000010 0b 1d 0e c1 57 c4 3f 3f e3 53 25 41 a1 72 d8 3d
       -8.882091 0.74908966 10.33298 0.10568739
000020 fb fd 43 40 d5 9f 8e bf b1 77 e9 3f 84 39 2f be
       3.0623767 -1.1142527 1.8239652 -0.17111784
000030 f9 49 98 40 c5 e9 2e c1 5a 44 ca c0 ea ca 4b c1
       4.75903 -10.932073 -6.3208437 -12.73704
000040 9b 4b 7d c1 82 1e 0d 3f cc 79 9d be aa 2f 11 bf
       -15.830958 0.55124676 -0.30756986 -0.56713355
000050 55 80 bf c0 53 78 9a c0 a9 eb d7 c0 81 c0 57 c0
       -5.9844155 -4.827188 -6.747517 -3.3711245
000060 18 81 52 40 6b a4 d9 c0 8e 49 a4 c0 2e 34 c9 bf
       3.2891293 -6.8013206 -5.133979 -1.5719049
000070 30 e1 6c c1 c5 ef 0f bd 32 97 05 41 98 f7 f6 3f
       -14.804977 -0.03514077 8.349413 1.929431
000080 57 aa cb bf 4f 59 6f c1 77 42 ef bd ef 2e 5c 3f
       -1.5911359 -14.959304 -0.11682599 0.86009115
000090 2d e3 c5 c0 e9 08 d8 c0 d8 a0 0f c1 dc ed 63 c1
       -6.1839814 -6.7510877 -8.9767685 -14.245571
0000a0 7f 6e 39 be 3f 05 2c 40 89 6c 85 c1 b5 a6 62 3e
       -0.18108557 2.6878202 -16.677996 0.22133906
0000b0 93 cb 4c c1 5e f0 95 3f 41 c3 07 c0 4b 38 66 be
       -12.799701 1.1713979 -2.1212924 -0.22482412
0000c0 51 c6 52 40 3f 40 9f 40 cb d1 3e c0 b1 10 55 c0
       3.2933543 4.9765925 -2.9815547 -3.3291438
0000d0 be 1e 4f 41 da 55 e6 bd 4e a8 34 c0 3b cf 43 c0
       12.945005 -0.11246844 -2.8227725 -3.0595233
0000e0 44 f3 a7 c0 87 77 21 c1 a5 5e df c0 bf 7b 81 3e
       -5.2484455 -10.0916815 -6.9803033 0.25289723
0000f0 0c db 87 c0 e9 2d 72 3f 6f 64 26 c1 c2 29 9c bf
       -4.245489 0.94601303 -10.39952 -1.2200243

fc3.weight f4 [4, 64]
000000 ec 4b 19 c1 c8 d0 7e c0 fc 44 8a c0 de 8f 02 bf
       -9.581036 -3.981493 -4.320921 -0.51000774
000010 9e 09 59 bf 37 47 3e c0 21 a9 10 c0 38 81 00 c0
       -0.847803 -2.9730966 -2.2603228 -2.007887
000020 82 9d 0a c1 1b 3a a7 bf 1e fe 8f c0 ec 1a 74 c0
       -8.663454 -1.3064607 -4.49977 -3.8141432
000030 a3 cf 0e c1 e2 e6 68 c0 d2 b0 08 c0 ce 3d 4e c0
       -8.925693 -3.639092 -2.1357923 -3.2225223
000040 85 3d 10 c0 4c 1e 66 bf b0 cf 4d bd 70 87 44 bf
       -2.2537549 -0.8988998 -0.050246894 -0.7676916
000050 f6 b9 34 bf 81 e7 9b c0 35 b5 78 c0 ab 78 a9 c0
       -0.70596254 -4.8720098 -3.88606 -5.29598
000060 5f c9 b5 bf 8d a6 08 c0 1a bc 15 c0 50 c9 c4 bf
       -1.4202079 -2.1351655 -2.3396058 -1.5373936
000070 a1 d1 d6 c0 7a 84 05 bf 0c 7e 1c bf fb b6 0c bf
       -6.7130895 -0.5215527 -0.6112983 -0.54966706
000080 87 32 14 c0 ed 5d 16 c2 7c b7 b7 bd 37 2c 4c c0
       -2.315584 -37.591724 -0.08970544 -3.1901987
000090 2c d4 4b c1 46 b7 ef bf 9d 96 95 bf 04 be 71 c0
       -12.7393 -1.8727806 -1.1686589 -3.7772226
0000a0 8d 6f b6 bb 97 2e 26 bf 18 02 31 c1 bf 06 ac bf
       -0.005567497 -0.6491484 -11.063011 -1.3439559
0000b0 26 e5 11 c0 97 da f2 bf 4d c7 0d c0 16 03 95 bf
       -2.279611 -1.8972958 -2.2152894 -1.1641567
0000c0 ed 34 85 bf be 64 78 bf f6 5b 44 bf 95 43 05 c1
       -1.0406777 -0.9702872 -0.7670282 -8.3289995
0000d0 a0 1c 82 bf 5b e2 a4 bd 79 13 c2 bf fe bf 47 bf
       -1.0164986 -0.080509864 -1.5162193 -0.7802733
0000e0 14 23 8d c0 b5 42 50 c0 10 d0 cc bf 01 37 c3 c1
       -4.410532 -3.2540715 -1.6000996 -24.401857
0000f0 61 e4 94 c0 d5 76 ac be cd 1c 41 c0 4f d2 a1 bf
       -4.6528783 -0.33684412 -3.0173829 -1.2642306
000100 3b 6f 88 c0 59 a5 70 c0 f5 81 80 c0 c7 3b 13 bf
       -4.263578 -3.760092 -4.015864 -0.5751309
000110 4e c7 6c bf bb e4 fd bf 4f f4 da bf c7 b1 01 c0
       -0.92491615 -1.9835428 -1.7105807 -2.0264757
000120 56 50 0d c1 25 de 90 bf 06 65 8b c0 6e 8a 79 c0
       -8.832113 -1.1317793 -4.356082 -3.899074
000130 2c 68 7b c0 f7 3e 13 c0 04 23 0d c0 5a 83 15 c0
       -3.9282331 -2.300718 -2.2052622 -2.336142
000140 53 c4 d7 bf b1 90 6c bf 62 86 e9 bd 63 db 49 bf
       -1.6856788 -0.9240828 -0.114025846 -0.7885038
000150 f1 1e 4f bf 16 96 1a c0 24 f3 6c c0 01 2f ae c0
       -0.8090659 -2.4154105 -3.7023401 -5.443238
000160 85 6b d2 bf fe a5 04 c0 b3 e8 0a c0 14 7e c1 bf
       -1.6439062 -2.0726314 -2.1704528 -1.5116601
000170 af 98 c3 c0 80 2a f5 be 83 f9 10 bf d0 22 47 bf
       -6.112388 -0.47883987 -0.56630725 -0.77787495
000180 c1 79 1c c0 46 07 0b c0 5a b7 09 be 96 b2 49 c0
       -2.4449313 -2.172319 -0.1344885 -3.151525
000190 01 96 47 c1 3f f1 f0 bf 7a c1 b6 be 35 a3 74 c0
       -12.474122 -1.8823622 -0.35694486 -3.8224614
0001a0 d2 bb 62 bd 86 17 7b bf fa 46 94 c0 d5 c6 b4 bf
       -0.0553549 -0.9808277 -4.633664 -1.4123179
0001b0 c6 4b d0 bf 73 05 3f bf 20 29 02 c0 c5 2a 97 bf
       -1.6273124 -0.7461769 -2.03376 -1.1809927
0001c0 8a 12 8f bf 87 75 79 bf 3f 55 7a bf 48 38 e0 bf
       -1.1177533 -0.9744496 -0.97786325 -1.7517176
0001d0 70 4e 19 bf 1c b9 52 bc 31 f8 60 bf dd 6d 3a bf
       -0.5988531 -0.012861516 -0.8787871 -0.7282389
0001e0 77 be 89 c0 08 11 2c c0 4e eb c4 bf 6e fd bf c0
       -4.3045 -2.6885395 -1.5384309 -5.9996862
0001f0 89 01 f8 bf 36 64 c3 be 28 99 1c c0 81 c4 9c bf
       -1.9375468 -0.38162392 -2.446848 -1.2247468
000200 43 4a 7f c0 8d 54 65 c0 a6 89 83 c0 b0 cb da be
       -3.9889076 -3.5832856 -4.110553 -0.42733526
000210 94 58 6c bf a3 6b ff bf 8f 2c dc bf e8 a8 0d c0
       -0.9232266 -1.9954723 -1.7201098 -2.2134342
000220 20 e4 09 c1 c7 77 81 bf fb a9 84 c0 12 ce 6d c0
       -8.618195 -1.0114678 -4.1457496 -3.7157025
000230 dd af 6c c0 21 6b 0f c0 dd a4 15 c0 10 67 1a c0
       -3.6982338 -2.2409136 -2.3381875 -2.4125404
000240 b6 b0 0b c0 b9 96 89 bf dd 77 12 be 6f e0 6e bf
       -2.1826606 -1.0749122 -0.14303537 -0.9331121
000250 81 2f 1c bf 65 49 1e c0 2d ca 65 c0 53 de b1 c0
       -0.61009985 -2.4732296 -3.5904648 -5.558389
000260 76 a3 d1 bf 0f 60 f5 bf 0c 0e 01 c0 04 e7 d0 bf
       -1.6378009 -1.916994 -2.0164824 -1.63205
000270 45 b2 c6 c0 d4 46 16 bf b3 30 06 bf 8c 6a 53 bf
       -6.2092614 -0.58701825 -0.5241806 -0.8258445
000280 4a 79 24 c0 77 97 07 c0 ed 87 c6 bd 30 0a 48 c0
       -2.569903 -2.1186197 -0.096938945 -3.1256218
000290 e5 fd 44 c1 0c f9 da bf 50 49 af be 2f 5e 76 c0
       -12.311986 -1.7107253 -0.3423562 -3.8494985
0002a0 1c ea 13 be 5d bb 5a bf c8 12 98 c0 82 0f cc bf
       -0.14444774 -0.85442144 -4.7522926 -1.5942233
0002b0 99 e2 d2 bf c7 36 36 bf d2 7a 09 c0 0e e0 a6 bf
       -1.6475402 -0.71177334 -2.1481214 -1.3037126
0002c0 9b c7 92 bf 89 f0 8f bf 5b 52 6a bf 51 6c d8 bf
       -1.1467165 -1.124528 -0.91531914 -1.6908056
0002d0 aa 5b 81 bf f8 90 24 be 5f b4 83 bf 77 0b 1e bf
       -1.0106099 -0.16070926 -1.028942 -0.61736244
0002e0 54 dc 84 c0 3d aa 35 c0 f5 92 bc bf 60 8b b7 c0
       -4.1518955 -2.8385155 -1.4732348 -5.7357635
0002f0 27 e2 ec bf b5 b9 05 bf 08 a1 1f c0 07 6d b5 bf
       -1.8506516 -0.5223649 -2.4942036 -1.4173898
000300 c9 c0 8b c0 12 fc 80 c0 ae e7 79 c0 ff b1 ee be
       -4.3672833 -4.0307703 -3.9047656 -0.46620175
000310 d8 13 a0 bf d1 b6 de bf e9 0a e6 bf f3 92 0c c0
       -1.2506056 -1.7399541 -1.797208 -2.196469
000320 97 fa 0c c1 60 6b 8c bf 4c de 87 c0 95 d1 7b c0
       -8.811179 -1.0970268 -4.245886 -3.9346669
000330 3b fb 86 c0 b1 0c 0c c0 07 7e 16 c0 76 36 22 c0
       -4.218168 -2.1882746 -2.351442 -2.534574
000340 d5 60 d7 bf 45 da 87 bf 72 75 14 be 2d 2e 6f bf
       -1.6826426 -1.0613486 -0.14497927 -0.93429834
000350 da f7 6c bf ca ca 21 c0 7b 87 6e c0 48 c7 bd c0
       -0.9256569 -2.5280023 -3.727019 -5.9305763
000360 28 65 d8 bf 2e 7f 06 c0 55 db 09 c0 6f 51 cb bf
       -1.690587 -2.1015124 -2.154012 -1.5884227
000370 af 5a c7 c0 8e 2c e6 be b7 00 9a be 87 9e 6a bf
       -6.22982 -0.44955868 -0.3007867 -0.91648144
000380 a6 32 14 c0 11 b7 0e c0 eb 21 0d be ca cb 4e c0
       -2.3155913 -2.2299235 -0.1378247 -3.2311883
000390 54 cf 48 c1 8b 1e fa bf 3a 69 d6 be f3 9a 79 c0
       -12.550617 -1.9540571 -0.41877156 -3.9000823
0003a0 1f fd 83 3c 6f 90 63 bf 84 6c a0 c0 fb 91 ce bf
       0.016111908 -0.88892263 -5.0132465 -1.61383
0003b0 2e 60 c7 bf 4f e4 52 bf 94 9c 03 c0 00 31 91 bf
       -1.5576227 -0.8237962 -2.0564318 -1.1343079
0003c0 3b 1c 77 bf 6c 3b 8b bf a7 22 70 bf 79 79 db bf
       -0.9652745 -1.0877509 -0.93802875 -1.7146446
0003d0 ff 93 2f bf 43 fd 9c bc 26 86 62 bf fd 7c 2a bf
       -0.685852 -0.019163733 -0.88485944 -0.66596967
0003e0 2c bd 8e c0 a5 2b 2d c0 b2 f2 cf bf 16 c6 bf c0
       -4.4605923 -2.7057889 -1.624594 -5.9929304
0003f0 95 9c e0 bf cc 03 cb be fe 94 29 c0 64 69 9e bf
       -1.7547785 -0.39651334 -2.6497188 -1.2375913

fc3.bias f4 [4]
000000 fa 83 ab bf dd 89 77 3f a6 57 8c 3e 4e d1 12 c0
       -1.3399651 0.9669474 0.2741062 -2.294025
